…
     "\n",
     ""
    ]
   },
   {
    "cell_type": "code",
-   "execution_count": 7,
+   "execution_count": 77,
    "metadata": {},
    "outputs": [
     {
      "output_type": "stream",
      "name": "stdout",
-     "text": "Model: \"model\"\n_________________________________________________________________\nLayer (type)                 Output Shape              Param #   \n=================================================================\ninput_1 (InputLayer)         [(None, 512)]             0         \n_________________________________________________________________\nrepeat_vector (RepeatVector) (None, 54, 512)           0         \n_________________________________________________________________\nlstm (LSTM)                  (None, 54, 32)            69760     \n_________________________________________________________________\nlstm_1 (LSTM)                (None, 54, 64)            24832     \n_________________________________________________________________\ntime_distributed (TimeDistri (None, 54, 100)           6500      \n_________________________________________________________________\ntime_distributed_1 (TimeDist (None, 54, 46948)         4741748   \n=================================================================\nTotal params: 4,842,840\nTrainable params: 4,842,840\nNon-trainable params: 0\n_________________________________________________________________\n"
+     "text": "Model: \"model_1\"\n_________________________________________________________________\nLayer (type)                 Output Shape              Param #   \n=================================================================\ninput_2 (InputLayer)         [(None, 512)]             0         \n_________________________________________________________________\nrepeat_vector_1 (RepeatVecto (None, 54, 512)           0         \n_________________________________________________________________\nlstm_2 (LSTM)                (None, 54, 32)            69760     \n_________________________________________________________________\nlstm_3 (LSTM)                (None, 54, 64)            24832     \n_________________________________________________________________\ntime_distributed_2 (TimeDist (None, 54, 100)           6500      \n_________________________________________________________________\ntime_distributed_3 (TimeDist (None, 54, 46949)         4741849   \n=================================================================\nTotal params: 4,842,941\nTrainable params: 4,842,941\nNon-trainable params: 0\n_________________________________________________________________\n"
     }
    ],
    "source": [
@@ -161,38 +162,96 @@
   },
   {
    "cell_type": "code",
-   "execution_count": 23,
+   "execution_count": 78,
    "metadata": {},
+   "outputs": [],
…
